…
Instructions for updating:
If using Keras pass *_constraint arguments to layers.
Model: "model"
__________________________________________________________________________________________________
Layer (type)                    Output Shape         Param #     Connected to                     
==================================================================================================
input_1 (InputLayer)            [(4, 1200, 1920, 3)] 0                                            
__________________________________________________________________________________________________
conv2d (Conv2D)                 (4, 1200, 1920, 32)  896         input_1[0][0]                    
__________________________________________________________________________________________________
batch_normalization (BatchNorma (4, 1200, 1920, 32)  96          conv2d[0][0]                     
__________________________________________________________________________________________________
leaky_re_lu (LeakyReLU)         (4, 1200, 1920, 32)  0           batch_normalization[0][0]        
__________________________________________________________________________________________________
max_pooling2d (MaxPooling2D)    (4, 600, 960, 32)    0           leaky_re_lu[0][0]                
__________________________________________________________________________________________________
conv2d_1 (Conv2D)               (4, 600, 960, 64)    18496       max_pooling2d[0][0]              
__________________________________________________________________________________________________
batch_normalization_1 (BatchNor (4, 600, 960, 64)    192         conv2d_1[0][0]                   
__________________________________________________________________________________________________
leaky_re_lu_1 (LeakyReLU)       (4, 600, 960, 64)    0           batch_normalization_1[0][0]      
__________________________________________________________________________________________________
max_pooling2d_1 (MaxPooling2D)  (4, 300, 480, 64)    0           leaky_re_lu_1[0][0]              
__________________________________________________________________________________________________
conv2d_2 (Conv2D)               (4, 300, 480, 128)   73856       max_pooling2d_1[0][0]            
__________________________________________________________________________________________________
batch_normalization_2 (BatchNor (4, 300, 480, 128)   384         conv2d_2[0][0]                   
__________________________________________________________________________________________________
leaky_re_lu_2 (LeakyReLU)       (4, 300, 480, 128)   0           batch_normalization_2[0][0]      
__________________________________________________________________________________________________
conv2d_3 (Conv2D)               (4, 300, 480, 64)    8256        leaky_re_lu_2[0][0]              
__________________________________________________________________________________________________
batch_normalization_3 (BatchNor (4, 300, 480, 64)    192         conv2d_3[0][0]                   
__________________________________________________________________________________________________
leaky_re_lu_3 (LeakyReLU)       (4, 300, 480, 64)    0           batch_normalization_3[0][0]      
__________________________________________________________________________________________________
conv2d_4 (Conv2D)               (4, 300, 480, 128)   73856       leaky_re_lu_3[0][0]              
__________________________________________________________________________________________________
batch_normalization_4 (BatchNor (4, 300, 480, 128)   384         conv2d_4[0][0]                   
__________________________________________________________________________________________________
leaky_re_lu_4 (LeakyReLU)       (4, 300, 480, 128)   0           batch_normalization_4[0][0]      
__________________________________________________________________________________________________
max_pooling2d_2 (MaxPooling2D)  (4, 150, 240, 128)   0           leaky_re_lu_4[0][0]              
__________________________________________________________________________________________________
conv2d_5 (Conv2D)               (4, 150, 240, 256)   33024       max_pooling2d_2[0][0]            
__________________________________________________________________________________________________
batch_normalization_5 (BatchNor (4, 150, 240, 256)   768         conv2d_5[0][0]                   
__________________________________________________________________________________________________
leaky_re_lu_5 (LeakyReLU)       (4, 150, 240, 256)   0           batch_normalization_5[0][0]      
__________________________________________________________________________________________________
conv2d_6 (Conv2D)               (4, 150, 240, 128)   295040      leaky_re_lu_5[0][0]              
__________________________________________________________________________________________________
batch_normalization_6 (BatchNor (4, 150, 240, 128)   384         conv2d_6[0][0]                   
__________________________________________________________________________________________________
leaky_re_lu_6 (LeakyReLU)       (4, 150, 240, 128)   0           batch_normalization_6[0][0]      
__________________________________________________________________________________________________
conv2d_7 (Conv2D)               (4, 150, 240, 256)   33024       leaky_re_lu_6[0][0]              
__________________________________________________________________________________________________
batch_normalization_7 (BatchNor (4, 150, 240, 256)   768         conv2d_7[0][0]                   
__________________________________________________________________________________________________
leaky_re_lu_7 (LeakyReLU)       (4, 150, 240, 256)   0           batch_normalization_7[0][0]      
__________________________________________________________________________________________________
max_pooling2d_3 (MaxPooling2D)  (4, 75, 120, 256)    0           leaky_re_lu_7[0][0]              
__________________________________________________________________________________________________
conv2d_8 (Conv2D)               (4, 75, 120, 512)    1180160     max_pooling2d_3[0][0]            
__________________________________________________________________________________________________
batch_normalization_8 (BatchNor (4, 75, 120, 512)    1536        conv2d_8[0][0]                   
__________________________________________________________________________________________________
leaky_re_lu_8 (LeakyReLU)       (4, 75, 120, 512)    0           batch_normalization_8[0][0]      
__________________________________________________________________________________________________
conv2d_9 (Conv2D)               (4, 75, 120, 256)    131328      leaky_re_lu_8[0][0]              
__________________________________________________________________________________________________
batch_normalization_9 (BatchNor (4, 75, 120, 256)    768         conv2d_9[0][0]                   
__________________________________________________________________________________________________
leaky_re_lu_9 (LeakyReLU)       (4, 75, 120, 256)    0           batch_normalization_9[0][0]      
__________________________________________________________________________________________________
conv2d_10 (Conv2D)              (4, 75, 120, 512)    1180160     leaky_re_lu_9[0][0]              
__________________________________________________________________________________________________
batch_normalization_10 (BatchNo (4, 75, 120, 512)    1536        conv2d_10[0][0]                  
__________________________________________________________________________________________________
leaky_re_lu_10 (LeakyReLU)      (4, 75, 120, 512)    0           batch_normalization_10[0][0]     
__________________________________________________________________________________________________
conv2d_11 (Conv2D)              (4, 75, 120, 256)    131328      leaky_re_lu_10[0][0]             
__________________________________________________________________________________________________
batch_normalization_11 (BatchNo (4, 75, 120, 256)    768         conv2d_11[0][0]                  
__________________________________________________________________________________________________
leaky_re_lu_11 (LeakyReLU)      (4, 75, 120, 256)    0           batch_normalization_11[0][0]     
__________________________________________________________________________________________________
conv2d_12 (Conv2D)              (4, 75, 120, 512)    1180160     leaky_re_lu_11[0][0]             
__________________________________________________________________________________________________
batch_normalization_12 (BatchNo (4, 75, 120, 512)    1536        conv2d_12[0][0]                  
__________________________________________________________________________________________________
leaky_re_lu_12 (LeakyReLU)      (4, 75, 120, 512)    0           batch_normalization_12[0][0]     
__________________________________________________________________________________________________
max_pooling2d_4 (MaxPooling2D)  (4, 25, 40, 512)     0           leaky_re_lu_12[0][0]             
__________________________________________________________________________________________________
conv2d_13 (Conv2D)              (4, 25, 40, 1024)    4719616     max_pooling2d_4[0][0]            
__________________________________________________________________________________________________
batch_normalization_13 (BatchNo (4, 25, 40, 1024)    3072        conv2d_13[0][0]                  
__________________________________________________________________________________________________
leaky_re_lu_13 (LeakyReLU)      (4, 25, 40, 1024)    0           batch_normalization_13[0][0]     
__________________________________________________________________________________________________
conv2d_14 (Conv2D)              (4, 25, 40, 512)     524800      leaky_re_lu_13[0][0]             
__________________________________________________________________________________________________
batch_normalization_14 (BatchNo (4, 25, 40, 512)     1536        conv2d_14[0][0]                  
__________________________________________________________________________________________________
leaky_re_lu_14 (LeakyReLU)      (4, 25, 40, 512)     0           batch_normalization_14[0][0]     
__________________________________________________________________________________________________
conv2d_15 (Conv2D)              (4, 25, 40, 1024)    4719616     leaky_re_lu_14[0][0]             
__________________________________________________________________________________________________
batch_normalization_15 (BatchNo (4, 25, 40, 1024)    3072        conv2d_15[0][0]                  
__________________________________________________________________________________________________
leaky_re_lu_15 (LeakyReLU)      (4, 25, 40, 1024)    0           batch_normalization_15[0][0]     
__________________________________________________________________________________________________
tf_op_layer_split (TensorFlowOp [(4, 3, 120, 512), ( 0           leaky_re_lu_12[0][0]             
__________________________________________________________________________________________________
conv2d_16 (Conv2D)              (4, 25, 40, 512)     524800      leaky_re_lu_15[0][0]             
__________________________________________________________________________________________________
tf_op_layer_ExpandDims (TensorF (1, 4, 3, 120, 512)  0           tf_op_layer_split[0][0]          
__________________________________________________________________________________________________
tf_op_layer_ExpandDims_1 (Tenso (1, 4, 3, 120, 512)  0           tf_op_layer_split[0][1]          
__________________________________________________________________________________________________
tf_op_layer_ExpandDims_2 (Tenso (1, 4, 3, 120, 512)  0           tf_op_layer_split[0][2]          
__________________________________________________________________________________________________
tf_op_layer_ExpandDims_3 (Tenso (1, 4, 3, 120, 512)  0           tf_op_layer_split[0][3]          
__________________________________________________________________________________________________
tf_op_layer_ExpandDims_4 (Tenso (1, 4, 3, 120, 512)  0           tf_op_layer_split[0][4]          
__________________________________________________________________________________________________
tf_op_layer_ExpandDims_5 (Tenso (1, 4, 3, 120, 512)  0           tf_op_layer_split[0][5]          
__________________________________________________________________________________________________
tf_op_layer_ExpandDims_6 (Tenso (1, 4, 3, 120, 512)  0           tf_op_layer_split[0][6]          
__________________________________________________________________________________________________
tf_op_layer_ExpandDims_7 (Tenso (1, 4, 3, 120, 512)  0           tf_op_layer_split[0][7]          
__________________________________________________________________________________________________
tf_op_layer_ExpandDims_8 (Tenso (1, 4, 3, 120, 512)  0           tf_op_layer_split[0][8]          
__________________________________________________________________________________________________
tf_op_layer_ExpandDims_9 (Tenso (1, 4, 3, 120, 512)  0           tf_op_layer_split[0][9]          
__________________________________________________________________________________________________
tf_op_layer_ExpandDims_10 (Tens (1, 4, 3, 120, 512)  0           tf_op_layer_split[0][10]         
__________________________________________________________________________________________________
tf_op_layer_ExpandDims_11 (Tens (1, 4, 3, 120, 512)  0           tf_op_layer_split[0][11]         
__________________________________________________________________________________________________
tf_op_layer_ExpandDims_12 (Tens (1, 4, 3, 120, 512)  0           tf_op_layer_split[0][12]         
__________________________________________________________________________________________________
tf_op_layer_ExpandDims_13 (Tens (1, 4, 3, 120, 512)  0           tf_op_layer_split[0][13]         
__________________________________________________________________________________________________
tf_op_layer_ExpandDims_14 (Tens (1, 4, 3, 120, 512)  0           tf_op_layer_split[0][14]         
__________________________________________________________________________________________________
tf_op_layer_ExpandDims_15 (Tens (1, 4, 3, 120, 512)  0           tf_op_layer_split[0][15]         
__________________________________________________________________________________________________
tf_op_layer_ExpandDims_16 (Tens (1, 4, 3, 120, 512)  0           tf_op_layer_split[0][16]         
__________________________________________________________________________________________________
tf_op_layer_ExpandDims_17 (Tens (1, 4, 3, 120, 512)  0           tf_op_layer_split[0][17]         
__________________________________________________________________________________________________
tf_op_layer_ExpandDims_18 (Tens (1, 4, 3, 120, 512)  0           tf_op_layer_split[0][18]         
__________________________________________________________________________________________________
tf_op_layer_ExpandDims_19 (Tens (1, 4, 3, 120, 512)  0           tf_op_layer_split[0][19]         
__________________________________________________________________________________________________
tf_op_layer_ExpandDims_20 (Tens (1, 4, 3, 120, 512)  0           tf_op_layer_split[0][20]         
__________________________________________________________________________________________________
tf_op_layer_ExpandDims_21 (Tens (1, 4, 3, 120, 512)  0           tf_op_layer_split[0][21]         
__________________________________________________________________________________________________
tf_op_layer_ExpandDims_22 (Tens (1, 4, 3, 120, 512)  0           tf_op_layer_split[0][22]         
__________________________________________________________________________________________________
tf_op_layer_ExpandDims_23 (Tens (1, 4, 3, 120, 512)  0           tf_op_layer_split[0][23]         
__________________________________________________________________________________________________
tf_op_layer_ExpandDims_24 (Tens (1, 4, 3, 120, 512)  0           tf_op_layer_split[0][24]         
__________________________________________________________________________________________________
batch_normalization_16 (BatchNo (4, 25, 40, 512)     1536        conv2d_16[0][0]                  
__________________________________________________________________________________________________
tf_op_layer_concat (TensorFlowO (25, 4, 3, 120, 512) 0           tf_op_layer_ExpandDims[0][0]     
                                                                 tf_op_layer_ExpandDims_1[0][0]   
                                                                 tf_op_layer_ExpandDims_2[0][0]   
                                                                 tf_op_layer_ExpandDims_3[0][0]   
                                                                 tf_op_layer_ExpandDims_4[0][0]   
…
                                                                 tf_op_layer_ExpandDims_60[0][0]  
                                                                 tf_op_layer_ExpandDims_61[0][0]  
                                                                 tf_op_layer_ExpandDims_62[0][0]  
                                                                 tf_op_layer_ExpandDims_63[0][0]  
                                                                 tf_op_layer_ExpandDims_64[0][0]  
__________________________________________________________________________________________________
leaky_re_lu_17 (LeakyReLU)      (4, 25, 40, 1024)    0           batch_normalization_17[0][0]     
__________________________________________________________________________________________________
tf_op_layer_split_2 (TensorFlow [(40, 25, 4, 1, 3, 5 0           tf_op_layer_concat_1[0][0]       
__________________________________________________________________________________________________
conv2d_18 (Conv2D)              (4, 25, 40, 1024)    9438208     leaky_re_lu_17[0][0]             
__________________________________________________________________________________________________
tf_op_layer_Squeeze (TensorFlow (40, 25, 4, 3, 512)  0           tf_op_layer_split_2[0][0]        
__________________________________________________________________________________________________
tf_op_layer_Squeeze_1 (TensorFl (40, 25, 4, 3, 512)  0           tf_op_layer_split_2[0][1]        
__________________________________________________________________________________________________
tf_op_layer_Squeeze_2 (TensorFl (40, 25, 4, 3, 512)  0           tf_op_layer_split_2[0][2]        
__________________________________________________________________________________________________
batch_normalization_18 (BatchNo (4, 25, 40, 1024)    3072        conv2d_18[0][0]                  
__________________________________________________________________________________________________
tf_op_layer_concat_2 (TensorFlo (40, 25, 4, 3, 1536) 0           tf_op_layer_Squeeze[0][0]        
                                                                 tf_op_layer_Squeeze_1[0][0]      
                                                                 tf_op_layer_Squeeze_2[0][0]      
__________________________________________________________________________________________________
leaky_re_lu_18 (LeakyReLU)      (4, 25, 40, 1024)    0           batch_normalization_18[0][0]     
__________________________________________________________________________________________________
tf_op_layer_split_3 (TensorFlow [(40, 25, 4, 1, 1536 0           tf_op_layer_concat_2[0][0]       
__________________________________________________________________________________________________
conv2d_19 (Conv2D)              (4, 25, 40, 1024)    9438208     leaky_re_lu_18[0][0]             
__________________________________________________________________________________________________
tf_op_layer_Squeeze_3 (TensorFl (40, 25, 4, 1536)    0           tf_op_layer_split_3[0][0]        
__________________________________________________________________________________________________
tf_op_layer_Squeeze_4 (TensorFl (40, 25, 4, 1536)    0           tf_op_layer_split_3[0][1]        
__________________________________________________________________________________________________
tf_op_layer_Squeeze_5 (TensorFl (40, 25, 4, 1536)    0           tf_op_layer_split_3[0][2]        
__________________________________________________________________________________________________
batch_normalization_19 (BatchNo (4, 25, 40, 1024)    3072        conv2d_19[0][0]                  
__________________________________________________________________________________________________
tf_op_layer_concat_3 (TensorFlo (40, 25, 4, 4608)    0           tf_op_layer_Squeeze_3[0][0]      
                                                                 tf_op_layer_Squeeze_4[0][0]      
                                                                 tf_op_layer_Squeeze_5[0][0]      
__________________________________________________________________________________________________
leaky_re_lu_19 (LeakyReLU)      (4, 25, 40, 1024)    0           batch_normalization_19[0][0]     
__________________________________________________________________________________________________
tf_op_layer_Transpose (TensorFl (4, 25, 40, 4608)    0           tf_op_layer_concat_3[0][0]       
__________________________________________________________________________________________________
tf_op_layer_concat_4 (TensorFlo (4, 25, 40, 5632)    0           leaky_re_lu_19[0][0]             
                                                                 tf_op_layer_Transpose[0][0]      
__________________________________________________________________________________________________
conv2d_20 (Conv2D)              (4, 25, 40, 1024)    51905536    tf_op_layer_concat_4[0][0]       
__________________________________________________________________________________________________
batch_normalization_20 (BatchNo (4, 25, 40, 1024)    3072        conv2d_20[0][0]                  
__________________________________________________________________________________________________
leaky_re_lu_20 (LeakyReLU)      (4, 25, 40, 1024)    0           batch_normalization_20[0][0]     
__________________________________________________________________________________________________
conv2d_21 (Conv2D)              (4, 25, 40, 40)      41000       leaky_re_lu_20[0][0]             
==================================================================================================
Total params: 90,401,800
Trainable params: 90,381,256
Non-trainable params: 20,544
__________________________________________________________________________________________________

Process finished with exit code 0
